Modelling/model.ckpt (torch_old, 31924 bytes, 2 tensors)

weight f4 [10, 784]
00000000: 5823 ecbc 6eb0 a1bc 41d5 eabc 901b 173c
00000010: 7ac7 10bd c5ce e4bc 90ba b63b 48a7 153c
00000020: 487a c93c 26ff 26bc c7a1 0e3d 00f8 cbb7
00000030: 0d64 343c 7e61 713c 5be3 18bc 85a6 ab3c
00000040: 8094 793b 4c3c b7bc 64d7 803c 2037 f4ba
00000050: c061 73bc f767 04bd 4607 43bc 4060 48bc
00000060: a35b 8dbc c0aa ef3a 3028 373c b898 153c
00000070: 33a1 8dbc 20f1 5e3c 602e afba 40db f03b
00000080: 67c6 86bc 9ce2 af3c 3dd0 093d 5615 a03b
00000090: 0dba 6bbc 6106 793c c94a e0bb 60aa 91bc
000000a0: 0fa3 11bd e15d d73c a50a bdbb 996b 08bd
000000b0: 1b47 1d3b c52e 213b 0fa4 0cbd aaaf b73c
000000c0: 2657 1cbc e189 293c e744 e7bc ca5e 053d
000000d0: 20d0 e13a 98ab 5c3c 8e93 db3c 0090 e8ba
000000e0: 0edf 963c c41e 10bc 6ac1 03b9 179f b2bc
000000f0: 5881 e83c 5d49 acbc cdba 2e3c 9b36 94bc
00000100: dab9 c23c 9a0f 33bb 91c0 6bbc 276c d93c
00000110: 16dc a43c 73d4 a83b 2341 1d3c 7f76 11bd
00000120: c975 9e3c b48b 1ebd cf46 cabb 6d5b 83bc
00000130: bf39 77bc 151c 06bd 354e a33b 9c09 abbc
00000140: 5f24 ffbc c478 8cbc afad 0e3d 40a6 a8ba
00000150: 8419 4c3c 5821 843b 6106 1f3b 9573 55bc
00000160: a4ff 91bb 8913 16bc da5d 50bc 0d1f db3b
00000170: ad5d 553b 853a 173c f2e2 d83c 5d3e a73c
00000180: 341a 75ba 3e90 c93c 1a1d 733c 3ffd f33b
00000190: f212 7d3c c08f 82bb 9d7d 21bd 8786 bebc
000001a0: ab63 12bc 92f0 183c e0c2 7ebc 76ad fc3c
000001b0: 5299 34bc fbc3 7a3c 35a0 82bc 8015 08ba
000001c0: 002d 413b 04f8 1bbc c8d3 e33c 2122 06bd
000001d0: b995 d63c b2ec ca3c 8fcb edbb 54c2 d0bb
000001e0: c086 a53c b9d8 8f3c 94da d83c e20f 20bd
000001f0: d7d8 7d3c 4788 acbc d73e b83c 9c1d d13c
00000200: 5890 2dbc 119a 16ba ba72 383c 645c c23c
00000210: 6ca9 62bb e68b 333c eb88 a3bc 3833 723c
00000220: d60a 5ebc e264 b23c e627 f03c 1190 87bc
00000230: d05e 41bb 5a47 dbbc ba86 a0bc 725b ecbb
00000240: ef12 e23c 0e2f aebc 5b9a 64bc b9d6 ffb9
00000250: dc8a 433c 2d99 02bd 6666 10bd 087f 32bc
00000260: 70d3 aebc 18cc 073d 9a86 a83c d818 9d3b
00000270: d903 743d 052b 24bc 01c3 76bb 9a8c 433d
00000280: 87b9 38bc bf49 af3c 887f f53c 00b7 5c3c
00000290: 1692 ee3c 678d 703c 76d2 d23b 24bd 0d3d
000002a0: a67b 4bbc 21b2 d8bc 5e35 89bc c26f 9ebc
000002b0: 66f6 22bc aff9 5b3c dd69 27bc 03ca 93bb
000002c0: 2d5c b539 95c3 14bc 75e9 523c 08f6 8e3c
000002d0: c462 53bc 0255 203d 1f44 3c3d 7ad9 a93c
000002e0: a2c8 cf3c 2770 cd3c 9c15 433d 041d 383d
000002f0: 8116 d13c 519d 943b 583b b5bc 6353 29bd
00000300: e4bf 0abd ec5d aa3c 6075 89bc e629 0b3d
00000310: b9db f7bc 7e35 6cbc 3f08 01bd b5b0 fc3c
00000320: 4c05 debc 2639 0abd 3caa a43c a997 fbbc
00000330: b3fd 16bd 3541 593c e9f6 813c 0362 0e3d
00000340: 90e5 58bc ffa1 253c fe4e 3b3c 7750 d13c
00000350: a824 283d 3fae 683d d776 2d3b 801c 243d
00000360: 271f db3b 7c3a 3d3d ca6a c0bb e0c8 e93c
00000370: 5a5b 20bd bf5e 2d3c 1f96 fdbc 2047 853c
00000380: 3ef9 193b e7e8 13bb 1a1d 063d 0955 543b
00000390: 15af de3c 0a4a 0cbc bfa0 ecbc 8e81 69bc
000003a0: 964a 5cbc 2056 32bb 5209 4fbc 1cff b63c
000003b0: 4545 833c 2ab9 1d3d 45ef 053d 27f9 1e3b
000003c0: d990 78bc dd19 403d d08a 083d fb69 8c3d
000003d0: 67c0 3f3d b90f 293c fd51 543d 6720 0d3c
000003e0: c3d6 95bc 35fe 8e3c a7e5 063d ce2e 2abc
000003f0: e4d2 13bb c3b9 d7bc 0bb1 1cbc c19c 863c
-0.028825447 -0.019737449 -0.02866614 0.00922288 -0.035346486 -0.027930627 0.005576439 0.009134121
0.024594441 -0.010192668 0.03482225 -2.431497e-05 0.011010182 0.014732717 -0.0093315495 0.020953426
0.0038082898 -0.022367619 0.015727706 -0.0018632151 -0.014854848 -0.03232571 -0.01190359 -0.012229979
-0.01725561 0.001828514 0.011179015 0.009130649 -0.01728878 0.013607293 -0.0013365261 0.0073503554
-0.016452027 0.02147036 0.033645857 0.004885356 -0.01438762 0.015199275 -0.0068448526 -0.017781436
-0.035555895 0.026289882 -0.005769091 -0.033305738 0.002399868 0.0024594527 -0.034336146 0.02242263
-0.009542262 0.010347814 -0.028231097 0.0325611 0.0017228164 0.0134686455 0.026803758 -0.0017743111
0.018416908 -0.008796398 -0.00012565186 -0.021804376 0.028381988 -0.021031076 0.010664654 -0.018092444
0.023770262 -0.0027322532 -0.014389173 0.026540829 0.020124476 0.005152279 0.009598049 -0.035513397
0.019343274 -0.03870745 -0.006172992 -0.016034806 -0.015089451 -0.032741625 0.0049836882 -0.020878606
-0.031145273 -0.01714743 0.034833606 -0.0012866929 0.012457255 0.004032295 0.0024265277 -0.013028045
-0.0044555236 -0.009159931 -0.012717688 0.006687051 0.0032557056 0.009230261 0.026475403 0.02041548
-0.0009349913 0.024604913 0.014838481 0.007445961 0.015446411 -0.0039844215 -0.039426435 -0.023257507
-0.0089348955 0.0093347 -0.0155493915 0.030844431 -0.011022883 0.015305514 -0.015945533 -0.0005191192
0.0029476285 -0.009519581 0.027810946 -0.03274739 0.02619444 0.024771068 -0.007256932 -0.006370822
0.020205855 0.017559396 0.026471414 -0.039077647 0.015493593 -0.021061076 0.022490902 0.025526814
-0.010593496 -0.00057450036 0.011257822 0.023725696 -0.0034585847 0.010958647 -0.019962749 0.014782719
-0.013552388 0.02177662 0.0293159 -0.016548188 -0.0029505976 -0.026767422 -0.019595493 -0.0072130496
0.027596919 -0.021262672 -0.013952817 -0.0004879737 0.011934962 -0.03188436 -0.035253905 -0.010894544
-0.021341056 0.033153623 0.020571996 0.0047942214 0.059573982 -0.010020022 -0.0037652852 0.04774151
-0.011274702 0.02139747 0.029968038 0.013471365 0.029122394 0.01468215 0.0064337803 0.034604207
-0.012419617 -0.026452126 -0.01674908 -0.0193404 -0.009946441 0.013426228 -0.010218111 -0.0045101657
0.00034591687 -0.0090798335 0.012873043 0.017451301 -0.0129019655 0.03914357 0.045963403 0.020733584
0.025364224 0.025077892 0.04762803 0.044949546 0.025523426 0.004535355 -0.022123024 -0.04133929
-0.033874407 0.020796739 -0.016779602 0.033975504 -0.03025614 -0.01441705 -0.031502005 0.03084598
-0.027102135 -0.033745907 0.020100705 -0.030711966 -0.03686304 0.0132601755 0.015864806 0.03476144
-0.013238326 0.010109424 0.011432407 0.025551064 0.041050583 0.0568068 0.002646854 0.040066242
0.0066870633 0.046198353 -0.0058721052 0.028538167 -0.03914962 0.010581671 -0.030955372 0.016269267
0.0023494507 -0.002256924 0.032742597 0.0032399318 0.027183095 -0.008562574 -0.028885243 -0.01425208
-0.013445517 -0.002721198 -0.0126364995 0.022338443 0.016024241 0.038506664 0.03269889 0.0024257393
-0.015171253 0.046899665 0.033335507 0.06856152 0.04681435 0.01031869 0.051836003 0.008613682
-0.018290883 0.0174552 0.032933857 -0.010387136 -0.002255612 -0.026333695 -0.009563695 0.016432168

bias f4 [10]
00000000: 8b38 7ebc eab9 123d 1504 283c a25e a3bc
00000010: 8e44 eb3a 27bc a63c ac13 333b b9ee 3a3b
00000020: 1db4 d0bc 429c c6bb
-0.015516411 0.035821833 0.0102548795 -0.019942585 0.0017949508 0.02035339 0.0027324958 0.0028523637
-0.02547651 -0.006061108
